Day5/benimmodel.pth (torch, 84027 bytes, 4 tensors)

conv1.weight f4 [12, 1, 3, 3]
000000 77 2d c5 3e ba ac 14 3f 96 bd 52 bf fb cf 30 3f
       0.3851125 0.5807606 -0.82320535 0.69067353
000010 42 b3 16 be d4 70 f4 be 84 b2 37 3f d2 1a 02 bf
       -0.14716819 -0.4774233 0.7175677 -0.50822175
000020 3d 50 f9 be 85 e8 5e 3e 50 df e1 3e 7c 91 f0 3e
       -0.4869403 0.21768387 0.44115686 0.46985996
000030 7f 5e 1d 3e 9b c8 88 bb e4 5a b9 3e 7d ce 2e bf
       0.15368079 -0.0041743047 0.36202157 -0.68283826
000040 6c 1f db be 0f e7 07 bf 74 ef 0b 3f 09 52 48 3e
       -0.4279741 -0.5308694 0.5466225 0.19562544
000050 e0 ae f3 3e 4e d3 4f bd bc 16 a5 3e 81 2d da bd
       0.47594357 -0.050738625 0.32243907 -0.106532104
000060 f4 fb 05 bf 5a ff 13 bf 5e 3b f0 be 53 e4 b8 3e
       -0.52337575 -0.5781151 -0.46920294 0.36111698
000070 31 40 31 3f b8 75 8b bd 99 f9 da be 6e c0 95 3e
       0.69238573 -0.068095624 -0.42768553 0.29248375
000080 d2 ec 39 3f 1e 8a 18 bf 92 01 44 bf d6 f6 19 3f
       0.72626984 -0.5958575 -0.76564896 0.60142267
000090 d0 e0 56 bf 37 8c 08 3e 05 55 07 3f d6 25 3e bf
       -0.83936787 0.13334738 0.52864105 -0.74276483
0000a0 49 ab 0c 3f c6 60 a3 3e ed 0c 1a be 5d 71 3b 3f
       0.5494886 0.3190977 -0.15043993 0.73219854
0000b0 ea 93 ae be ac ea 21 3e 6e be d3 3e eb 6a f9 3e
       -0.34097224 0.15812176 0.41356224 0.48714384
0000c0 c8 9e a5 3e 0c 92 64 3e 4c ae 74 be 5a f4 ff 3e
       0.32347703 0.22321337 -0.23894614 0.49991113
0000d0 3b 62 9e 3e 45 d8 04 bf 8f 97 0d 3e 0d 8c 65 be
       0.3093432 -0.518925 0.13827346 -0.22416706
0000e0 e6 16 c4 be ba 43 6f 3d 40 03 98 be f1 3f 56 3e
       -0.3829872 0.0584142 -0.2968998 0.20922829
0000f0 62 0a a6 be 49 30 37 be 78 9b 6a bd 6b ba 11 bf
       -0.32429796 -0.17889513 -0.057277173 -0.56925076
000100 1a 8e c7 be f4 3a 13 bf 6d fd 82 be 31 6f 26 be
       -0.38975602 -0.5751183 -0.25583974 -0.16253354
000110 81 57 da 3e 67 93 2f 3f 55 51 0e 3f 2c 5e 92 3e
       0.42644885 0.68584293 0.5559285 0.28587472
000120 47 e5 b9 3e 38 61 5d bf 46 65 12 bf 00 be 6c 3f
       0.36307737 -0.8647647 -0.5718578 0.92477417
000130 a5 a2 74 bd ce c9 2c bf f0 5b c1 3e d1 09 41 3f
       -0.059725422 -0.6749543 0.37765455 0.75405604
000140 20 af 25 3e 91 02 6a be b6 b6 ed be f3 8a 7f be
       0.16180086 -0.22852542 -0.4642846 -0.24955349
000150 d8 e7 83 3d 99 f7 28 3f 2d 94 32 3f 6e c5 3c 3e
       0.06440705 0.66002804 0.6975735 0.18434688
000160 da 5a 37 be ef b6 02 bf 5a 64 38 3f 19 3c af bd
       -0.17905751 -0.51060385 0.72028124 -0.085563846
000170 c7 59 26 bf 73 f3 ac be ae 47 1d be 28 a0 39 3e
       -0.6498074 -0.33779487 -0.15359375 0.18127501
000180 3a e4 fc be d2 63 7f 3e 61 0f d6 3e 20 57 bc bb
       -0.49392873 0.24940422 0.41808608 -0.005747691
000190 5b 02 a3 3e 74 10 99 3c ab b3 fa bd 5f 9f 50 be
       0.31837735 0.018684603 -0.122413 -0.20373295
0001a0 72 56 68 3e 83 30 cc bd 2b 8b 8a bd a2 b6 a3 be
       0.22689226 -0.099701904 -0.067648254 -0.31975275

conv1.bias f4 [12]
000000 f3 75 aa be 3e cc 8c bd c5 91 4f be 78 90 43 bd
       -0.33293113 -0.068748936 -0.2027045 -0.047745198
000010 3e 1f ef bd e5 62 61 be d3 7a c8 be 63 a3 d7 bd
       -0.11675881 -0.22010382 -0.39156207 -0.105292104
000020 5b 1a 88 be 3c 01 c7 bd 55 61 3d be 4c 54 86 be
       -0.26582608 -0.09717032 -0.1849416 -0.26236188

fc1.weight f4 [10, 2028]
000000 34 3e 85 bc 04 99 99 3d b0 c6 4b be 8e 59 88 3c
       -0.016265012 0.074998885 -0.19900012 0.016644266
000010 c0 aa 8f be 2c e6 23 bd 5a 07 82 be ea e0 08 3c
       -0.2805996 -0.04001443 -0.25396234 0.008354405
000020 c3 a6 bc bd 82 aa 28 be fa 24 a8 bd 96 1b 7a bd
       -0.09211495 -0.16471294 -0.08210178 -0.061061464
000030 7a f8 62 bd 38 f1 6c bd c8 65 2b be 1a c8 6e be
       -0.055412747 -0.05784723 -0.16738045 -0.2331852
000040 06 37 51 be f2 1a f5 be e5 93 f6 bd 62 6b 13 bc
       -0.20431146 -0.4787212 -0.120399274 -0.00899777
000050 f9 cc 79 3c b5 fb 7e be b6 e3 82 3b 82 7b 04 be
       0.015246623 -0.24900706 0.0039944304 -0.1293774
000060 16 92 92 3d 31 e4 26 be fb 46 06 bd da 52 1c be
       0.0715677 -0.16297986 -0.032782536 -0.1526598
000070 f1 09 7a be ea 45 cd bd 19 48 70 be 6d 35 e3 bd
       -0.24417855 -0.10023101 -0.23465003 -0.110941745
000080 31 d7 f3 bd a4 7d 8f bd 4d 14 13 be f4 90 e7 bd
       -0.11906279 -0.07006386 -0.14363213 -0.113069445
000090 2a c3 08 be a8 a9 e3 3d fe f0 31 bd 34 4b f9 3d
       -0.13355699 0.11116344 -0.04344272 0.12172547
0000a0 4c a3 e5 3d 0a 25 5d be a1 4b 0b be dd 6d 95 bd
       0.11212787 -0.2159616 -0.13603069 -0.072963454
0000b0 6f e8 0d 3d 14 ea 1f bc c7 0b 0f be a6 ba fc b9
       0.034645494 -0.009760398 -0.13969336 -0.0004820425
0000c0 90 3e e0 bd 1d 8b b5 bc 3b 15 37 bd c1 c0 ba 3d
       -0.10949433 -0.022161061 -0.04469798 0.09118796
0000d0 c0 e3 32 3d 6a 97 9a bd 01 c9 fa 3d 13 2e d3 bd
       0.04367423 -0.07548411 0.1224537 -0.10311522
0000e0 f8 2d 40 3e 33 e3 36 3d 82 12 46 3b a3 9a 0d ba
       0.18767536 0.044650268 0.0030223434 -0.0005401766
0000f0 71 c2 09 3d 02 46 92 3c ea 04 31 3d 1e eb 45 3d
       0.0336327 0.017855648 0.043217577 0.04831993
000100 79 f4 0b bd ef b8 1f 3c 1f cd 54 bd 11 7c cb 3c
       -0.034168694 0.009748681 -0.05195343 0.024839433
000110 ad 69 50 3e 94 57 ec 3d 87 f4 12 3d 1e 0f 4d 3e
       0.20352812 0.11540142 0.03587773 0.20025298
000120 42 aa 15 3e e8 cf ec 3d 1d 9f a4 3d 82 d9 b7 3d
       0.1461573 0.115630925 0.08038161 0.08977033
000130 ab b6 3d 3e fe d9 39 ba ff f5 15 bd 51 1e 88 3d
       0.18526714 -0.00070896733 -0.036611553 0.066464074
000140 08 d7 4d 3e 32 56 85 3e 16 b3 4c 3e a9 55 5c 3e
       0.20101559 0.26042324 0.19990191 0.21517052
000150 08 28 94 3e ca 26 ec 3d 89 ee be 3d 5b 9f fa 3d
       0.2893679 0.11530836 0.09322841 0.12237426
000160 ef 78 c4 3d 86 59 db 3d 11 f4 9d 3d 0d 50 96 bc
       0.09593379 0.107104346 0.077125676 -0.018348718
000170 6d 94 33 3e 69 78 7b 3e 8a 81 ec 3d fc be 19 3e
       0.17537089 0.24557652 0.11548145 0.15014261
000180 79 09 45 3e 03 4b 98 3e 57 95 46 bd 0e c3 32 3d
       0.19241895 0.2974473 -0.048482265 0.04364305
000190 98 d7 31 3d 6e 13 b9 3d 7f 6a d5 3d 34 a0 cb 3d
       0.043418497 0.09036909 0.10420703 0.09942666
0001a0 dd 9c 61 bd 0a e6 55 3e 3a 82 7e 3d a4 41 a3 3d
       -0.055081237 0.20888534 0.062135912 0.07971504
0001b0 7e b1 05 3e e3 40 69 3e 4a d3 28 3e 66 cd 5b 3d
       0.13055989 0.22778659 0.1648685 0.05366268
0001c0 0e 33 c1 3d 94 b4 a2 3d 74 c8 00 bc 90 2a f3 3c
       0.09433566 0.07944599 -0.007860292 0.029683381
0001d0 1e 1a 45 bc dc 96 86 3d dc 6d 18 3e 36 85 08 bd
       -0.012030153 0.06571743 0.14885658 -0.033330165
0001e0 4c fb d9 3d 46 1b 32 3e 37 a7 bf 3d 2b 92 05 3e
       0.10643634 0.17393216 0.093580656 0.1304404
0001f0 f3 3d 5d 3d c6 81 94 bd 3f 0a 5f bc 54 ef 26 bd
       0.054014158 -0.07251315 -0.013613283 -0.040755585
000200 87 5f 2e 3c 00 d7 6b bc 97 57 04 3e 4d e4 07 bd
       0.010642893 -0.014394522 0.12924038 -0.03317671
000210 7b 63 1f 3d 0a 99 f6 3d 77 a3 3d 3e 77 1e ed bb
       0.03891323 0.12040909 0.18519388 -0.0072362977
000220 02 d6 90 be ed 63 4d be 15 6c c7 bd c0 1e 0f bd
       -0.28288275 -0.2005765 -0.09737412 -0.034941435
000230 5f f2 19 be 24 66 e9 bd a3 09 7a be 25 02 4b bc
       -0.15033863 -0.11396435 -0.24417739 -0.012390648
000240 57 85 e2 bd d8 72 ac bd 6b 3c a3 bc 7f 14 a1 bd
       -0.11060589 -0.08420342 -0.01992627 -0.078652374
000250 64 06 01 be 6f a5 aa be ce f0 85 be 81 a3 35 be
       -0.12600094 -0.3332934 -0.26160282 -0.17738153
000260 27 29 15 be 4a eb 75 be e8 d3 fa bd f7 32 a0 be
       -0.1456648 -0.24015537 -0.12247449 -0.31288883
000270 8c fa c2 bb c1 f3 5d bc 5d bf 4a be da 0b e8 be
       -0.0059502777 -0.013546885 -0.19799562 -0.45321542
000280 57 44 c2 be d7 9a ab be 4a c8 b8 be ac fe e2 be
       -0.37942764 -0.3351657 -0.36090308 -0.44334924
000290 3b 11 b0 be 92 a6 b0 be a4 7e c7 be 52 80 4d be
       -0.34388146 -0.34502083 -0.38963807 -0.20068482
0002a0 1a 36 e2 bd 64 ea 0b 3d 4a 5c 5c 3d 2f 50 19 3d
       -0.11045475 0.03415908 0.05379895 0.037429985
0002b0 ed 43 07 3c c8 68 fc 3d af c0 9b 3d 3f 4e 0c 3e
       0.008255941 0.12324673 0.07605111 0.13701724
0002c0 b1 c3 e6 3d 1d 11 00 3e a5 33 78 3c fe 2d a3 3c
       0.11267794 0.12506528 0.015149032 0.019919392
0002d0 b1 9d 50 3d 67 1c 08 3d 20 0b 00 3e 52 8e 0d 3c
       0.050931636 0.03323021 0.12504244 0.008639889
0002e0 3f e1 95 3d a7 4c 9f bd ab ed a6 bd 0e 18 28 3d
       0.07318353 -0.07778292 -0.081508 0.041038565
0002f0 40 a8 51 bd 6e f2 6b 3d ff 55 2c 3e 7a b0 8e bc
       -0.051185846 0.057604246 0.1682968 -0.017418135
000300 d5 9e 85 be d0 32 c1 3b e5 be 94 3d 85 2f de bd
       -0.26097742 0.00589595 0.07262973 -0.108489074
000310 30 c7 63 be aa 5f 95 be 9d 02 75 be a8 42 a9 be
       -0.22243953 -0.29174548 -0.23926778 -0.33058667
000320 17 4b 6c be a5 e1 49 bd fe e8 da bc 6a 21 da bd
       -0.2307552 -0.049287457 -0.026722427 -0.106509045
000330 1e c6 a6 bd 04 45 96 bd 82 5d 99 bd da f6 ad be
       -0.081432566 -0.073373824 -0.07488538 -0.33977395
000340 af 7e 6f 3d 48 84 98 3c 2e e1 27 be 6f e9 8d bd
       0.058470424 0.018617764 -0.16394493 -0.069292895
000350 3b 4d 1c be 5e 0c 86 bd 8e 6d 0e bd ae e2 20 3c
       -0.15263836 -0.065453276 -0.03477245 0.00981967
000360 02 d2 e0 3c 11 9d d2 bd 56 c1 c5 3c 33 07 01 bd
       0.02744389 -0.10283864 0.024140041 -0.031501006
000370 9e 23 04 be 13 33 3c 3e 5a 1a ec bd 2e ab 21 be
       -0.12904212 0.18378858 -0.11528464 -0.15787956
000380 38 ca 86 3c b3 56 69 bd 88 67 12 bd 3e 72 b4 bd
       0.016453847 -0.05696745 -0.035743266 -0.088108525
000390 dc 54 c4 bc 1e 53 03 bc 7d 2e dc bd aa 48 cc bd
       -0.023966245 -0.008015422 -0.107510544 -0.09974797
0003a0 56 c3 00 be 92 95 b8 be 87 96 ee 3d 12 c3 27 3d
       -0.12574515 -0.36051613 0.116498046 0.040957518
0003b0 d8 5c 0f 39 58 96 ec bd 30 e7 69 bd 30 f0 1b be
       0.0001367213 -0.11552113 -0.057105243 -0.15228343
0003c0 59 f7 80 3c b0 4b 82 3d 3a 47 cd bd e0 1c 8b bd
       0.015742945 0.063620925 -0.10023351 -0.06792617
0003d0 f3 a6 2a bd f5 58 83 bd a3 7a 55 be 90 34 cf bc
       -0.04166312 -0.064134516 -0.20847563 -0.025293618
0003e0 05 a5 6e bd 9b 0c 56 be 07 eb 6b be 44 14 91 bc
       -0.058262844 -0.20903246 -0.23038875 -0.017709859
0003f0 20 3e 31 be a5 d0 7a be d9 db da bd ae 26 a5 bd
       -0.17308855 -0.24493654 -0.10686464 -0.08064018

fc1.bias f4 [10]
000000 aa ca 53 3c 31 97 bd 3d 62 4f a5 3c bb b8 46 bd
       0.012926737 0.09257353 0.020179454 -0.048516016
000010 71 d4 3f bd d4 d6 3b 3d ca 20 37 3c 14 e5 70 3c
       -0.04683346 0.045859173 0.011177251 0.014703054
000020 bb 18 86 bd 22 0b 6f bc
       -0.06547686 -0.014590057
